output/1010_model_trained_40.pth (torch, 43680 bytes, 53 tensors)

module.fc_in.weight f4 [12, 5]
000000 de 5b 39 3e 2c dd c1 be 13 a4 9b 3e 37 8b a7 be
       0.18101451 -0.37864053 0.30398616 -0.327234
000010 05 81 80 3e e8 d3 cb 3b bb 80 9c be 89 60 4d 3e
       0.25098434 0.0062203296 -0.30566964 0.20056356
000020 aa 69 3d be 23 ea ae 3d 5f 49 25 3e 24 2b c0 3e
       -0.18497339 0.08540752 0.1614127 0.37532914
000030 aa f0 9c be 14 db 7f be 5f fb 4f 3e 3d fb bb 3e
       -0.30652362 -0.24985915 0.20310734 0.36715117
000040 17 aa ab 3e b2 f5 bb 3e de 7b cc be 3b 76 b8 be
       0.33528206 0.36710888 -0.39938253 -0.36027703
000050 4b 89 75 bd 1a 79 06 bc 41 db 1e 3e 6a 7a 91 3e
       -0.059945386 -0.008207584 0.15513326 0.28413707
000060 f7 cb 3f be 55 2c f5 bd 4a 47 27 3e 09 fb 22 3e
       -0.1873015 -0.11971346 0.16335788 0.15916075
000070 20 78 c6 3d d1 44 75 3d a9 1f ce be 2c f9 0e 3c
       0.09690881 0.05988008 -0.4025853 0.008726399
000080 19 0c cd bd ad af ed bd a3 fc 99 3e 1e 99 55 bd
       -0.10012073 -0.11605773 0.3007556 -0.052147977
000090 1f 83 55 be 31 b9 ca be 63 dd 1e 3e 6e 3b f0 be
       -0.208508 -0.39594415 0.1551414 -0.4692034
0000a0 e2 f3 d6 3e 0f 61 33 be de 72 a5 3e ce 8a f0 3d
       0.41982943 -0.17517494 0.323142 0.11745225
0000b0 e3 bb 92 3e 1d 3e 10 3d fb c8 06 be d3 f4 3c 3e
       0.2865897 0.035215486 -0.13162605 0.18452768
0000c0 49 6e 91 be a6 e8 e9 bd f0 79 a8 bc b4 1f 79 be
       -0.28404453 -0.11421327 -0.020565957 -0.243285
0000d0 7a 6d f4 bc 67 8f ae bd e2 b3 bc bd c1 d8 62 3e
       -0.029837359 -0.085234456 -0.092139974 0.22152998
0000e0 19 41 33 be 60 82 b2 3e 93 c7 4e 3e a3 20 21 be
       -0.17505302 0.34865093 0.20193319 -0.15735106

module.fc_in.bias f4 [12]
000000 b1 42 1f be 67 24 8b 3e 2e b5 93 3e 1f 23 cf be
       -0.15552785 0.2717621 0.28849167 -0.40456483
000010 45 79 d8 3e 26 d9 f7 3d b6 b5 6e 3e c9 62 10 bc
       0.4228002 0.12101965 0.23311505 -0.008812615
000020 ab a8 33 3c 56 c0 01 3e eb e7 00 3e 8f ad 56 be
       0.010965507 0.12671027 0.1258847 -0.20964645

module.fc_temp.weight f4 [12, 7]
000000 d1 c0 de 3d c1 40 9d be 85 21 ac bd 71 3a 1a ba
       0.108766206 -0.30713466 -0.08404831 -0.0005883342
000010 64 e0 95 3d 16 5d af 3e 7b 03 5c be 08 6e f9 bd
       0.0731819 0.34250706 -0.21485703 -0.1217919
000020 b7 8d 78 3e 11 60 1f be c7 2f 45 be c1 73 62 be
       0.2427281 -0.1556399 -0.19256507 -0.22114469
000030 d6 29 d1 bd 3e f5 88 bd f8 be 54 3e 9f 7d a8 3e
       -0.10213058 -0.06687401 0.20775974 0.3290834
000040 cd b6 74 be 63 76 ac 3e 16 f0 f9 bd 59 0b b8 3d
       -0.23897858 0.33684072 -0.12203996 0.089865394
000050 7e 69 37 3e 16 1f 29 be b6 2c 20 be 18 4b 7e be
       0.17911336 -0.16515765 -0.15642056 -0.24833333
000060 76 e7 1d be 29 77 7b 3e 08 4a c6 bd d5 06 75 3e
       -0.15420327 0.24557175 -0.09682089 0.23928387
000070 3e f7 95 be 26 42 75 3e 7e 29 0b bd 42 df 7b 3e
       -0.29290193 0.23951015 -0.033975117 0.24596885
000080 6b f3 e7 bd 0a 2c 0f 3e df ed 96 3e d9 af 76 3e
       -0.11325725 0.13981643 0.29478356 0.24090518
000090 fe 8c 80 3e dc 50 d2 bd dd ac 0c be db 33 13 be
       0.25107569 -0.10269329 -0.13737817 -0.1437525
0000a0 63 1b 7e be 66 95 8e bd 53 bf 34 3e 03 4a 02 be
       -0.24815135 -0.06962089 0.1765111 -0.12723546
0000b0 cc 4f ad be cb 0b 57 3e 6d 55 c0 3e c7 f8 75 bd
       -0.33849943 0.21000592 0.37565175 -0.060051706
0000c0 cd c9 31 3d ee b6 7b be f0 d0 03 3e 63 74 9f bd
       0.043405343 -0.24581501 0.12872672 -0.07785871
0000d0 7b 9d 7b bc 94 84 b9 3e ee b5 23 be 07 74 34 bd
       -0.0153573705 0.36233962 -0.1598737 -0.044055965
0000e0 6b f7 dd bd b8 ac 72 3e 4a 5b bb 3e 99 2b c4 3d
       -0.10838207 0.236987 0.36593086 0.09578628
0000f0 f2 f8 a6 3d ea 58 8d 3e 9e 94 24 be ff b3 83 be
       0.08152951 0.276069 -0.16072318 -0.25723264
000100 d5 02 ce bd df 1c 20 3d b9 ce 3e be 3d a1 74 3e
       -0.10059134 0.039090034 -0.18633546 0.23889633
000110 3a 67 3a be b2 89 7d be e4 28 dc bc 3d 4f b3 3e
       -0.1820344 -0.24759558 -0.026874967 0.35021392
000120 14 f2 97 bd 23 82 dc 3d 3b 0d 1b 3e 08 84 60 be
       -0.074192196 0.10767009 0.15141766 -0.21925366
000130 ff 15 7c 3e 9e 49 d2 bd 3b 1d a6 3d 5c c7 02 3d
       0.24617766 -0.102679476 0.08111044 0.031928405
000140 01 d0 bb be 82 5d ab 3e d8 45 a6 be 22 5e d4 bd
       -0.36682132 0.33469778 -0.32475162 -0.10369517

module.fc_temp.bias f4 [12]
000000 38 b1 cb bb 22 0f 54 be ef 16 6a be c5 43 ad 3d
       -0.0062161945 -0.20708898 -0.22860311 0.08460192
000010 91 93 9d 3e ed 03 a3 3e 24 8b e3 3d fc 3b 5a 3d
       0.30776647 0.31838933 0.11110523 0.05327986
000020 2f b0 8e bd 50 9a 41 3e 80 2b a5 be 26 b6 9b be
       -0.06967198 0.18906522 -0.3225975 -0.30412406

module.spatial_attn_layers.0.attn.FC_Q.weight f4 [12, 12]
000000 29 91 3d be 9a 00 c7 bd 1e 80 96 3c 12 43 aa bd
       -0.18512405 -0.097169116 0.018371638 -0.08313574
000010 59 c0 75 3e 05 29 4a bd ac fc 67 3d 75 89 c0 3d
       0.23999156 -0.049355526 0.05663745 0.09401218
000020 56 e6 17 bd db 1d d4 bc c5 c3 0e be a5 82 03 be
       -0.0370849 -0.025893142 -0.13941868 -0.12842806
000030 25 28 97 3e 8d 55 2b bc 08 cb dd bc 02 2b 77 3e
       0.29522815 -0.010457409 -0.027074352 0.241375
000040 ba 71 7e be 83 ea 6b bd 36 88 7f 3d d2 a9 82 be
       -0.2484807 -0.057596695 0.06238576 -0.25520188
000050 b4 fc 36 be ef 0c d7 bd 9f 83 67 3e ee 91 a3 3c
       -0.17869836 -0.10500514 0.22608803 0.019967046
000060 e6 71 ad 3d b0 b5 21 3e cb ad 07 be ae 58 27 be
       0.0846899 0.15791965 -0.1324989 -0.16342422
000070 7d e3 db 3d b4 9f 7b be 01 00 10 3e a1 ad f8 bd
       0.10736749 -0.2457264 0.14062501 -0.12142492
000080 61 24 24 be d6 7f 06 be 18 77 76 3e 2b 9d 2a be
       -0.16029502 -0.13134703 0.24068868 -0.16661517
000090 25 33 b5 3d e1 9a 72 3e 5c fb 60 bd 2d b0 68 be
       0.08847646 0.23691894 -0.054927215 -0.22723456
0000a0 1b ca 06 be d6 be 09 3e 90 e0 16 be 10 ae c0 bd
       -0.13163035 0.13451704 -0.14734101 -0.094082
0000b0 8b e1 06 3e d8 f1 78 b9 df 5a 80 3e 0e 4a f9 3d
       0.13171975 -0.00023741217 0.2506933 0.12172328
0000c0 82 46 df 3d dd 73 65 3e 6f fd 81 3e a4 b2 10 3d
       0.1090212 0.2240748 0.25388667 0.035326615
0000d0 c9 ba 6b 3d 38 86 9b bb 7e b4 8f 3e b1 fa 5c be
       0.05755118 -0.0047462247 0.28067392 -0.21580006
0000e0 e2 a7 1a 3e 3d 47 2c 3e a0 91 93 3e 9e 24 4c bd
       0.15103105 0.1682405 0.2882204 -0.04983961
0000f0 2d ac 85 3e 0f 94 c9 3d 47 ed 85 be b4 0a 15 be
       0.26107922 0.09842693 -0.2615759 -0.14554864
000100 d0 37 56 bb 25 1e 30 3e e8 12 04 3d 6e 39 66 be
       -0.0032687075 0.17198999 0.032244593 -0.22482845
000110 02 c7 d7 3d 10 cb c8 bb 26 6c be bd ab 48 63 be
       0.105360046 -0.0061277226 -0.092979714 -0.2219569
000120 60 90 ff bd f2 dc e7 3d 7b 24 08 be 33 08 b6 3d
       -0.12478709 0.11321439 -0.13295166 0.088882826
000130 63 53 87 3e 8c 2a 99 bd 3e 86 51 3e 3a 55 1e 3e
       0.26430807 -0.07478818 0.20461366 0.15462199
000140 b4 79 b4 3c e3 e1 3f be 34 19 8a 3e 6f b9 88 be
       0.022030689 -0.18738513 0.26972353 -0.26703975
000150 e0 c2 3e be 22 89 77 3e 66 fb 75 bd 3b b6 89 bd
       -0.18629026 0.24173406 -0.060054205 -0.06724211
000160 aa 97 46 be 0f 42 fd bc 14 0c 6a be 28 55 15 be
       -0.19393793 -0.030915288 -0.2285617 -0.14583266
000170 53 47 63 3e ae 76 7e 3e a7 4f 4f 3e b3 bb e4 bb
       0.22195177 0.2484996 0.20245229 -0.0069803833
000180 ee 06 57 be 97 e9 93 3e 5e 14 24 be 55 bb 8a 3e
       -0.20998737 0.28889152 -0.16023394 0.27096048
000190 4e ad 22 be 7d 61 97 3e 81 d7 4d 3e a7 34 4b be
       -0.15886423 0.29566565 0.2010174 -0.19844304
0001a0 9f f3 81 3e 1b de e6 bd c5 c1 e0 3c 6f de ad 3c
       0.2538118 -0.11272832 0.027436147 0.021224229
0001b0 52 1d 82 be d9 d4 85 3d 19 6b 0d 3e 5f d8 a0 3d
       -0.25412995 0.06534738 0.13810386 0.078537695
0001c0 4c 7e 57 be 3c 97 8a be 85 7d b1 bd 5e e6 84 bc
       -0.21044272 -0.27068508 -0.08666519 -0.016223129
0001d0 66 7f 4e bd c3 33 fb bc 11 ff 31 3e 2d 64 55 be
       -0.050414465 -0.03066433 0.17382456 -0.20838995
0001e0 77 af 59 bd 88 bc 5a bd 40 52 dd 3d 2c 41 39 be
       -0.053145852 -0.053402454 0.108067036 -0.18091267
0001f0 dc 25 cb 3c ce 06 da bd 2e b2 7a 3c d1 11 4d be
       0.024798326 -0.10645829 0.01530127 -0.20026328
000200 ac 7d 5c bb 42 a1 96 be 21 41 98 3d 5e 3b 1d bd
       -0.0033644242 -0.29419905 0.07434297 -0.038386695
000210 f1 f1 42 be 9d 3a 53 3e 2d 20 36 be 05 04 96 be
       -0.19037606 0.20627828 -0.17785712 -0.29299942
000220 9f 22 38 3d b0 c7 fd bd 3b b9 43 3e fb 51 20 3e
       0.044954892 -0.12391603 0.19113629 0.15656273
000230 60 42 62 3e 17 74 8e be c2 23 80 3c 62 1e d7 bd
       0.22095633 -0.27822945 0.01564205 -0.10503842

module.spatial_attn_layers.0.attn.FC_Q.bias f4 [12]
000000 42 ae 4e 3e 07 01 44 bd 8f 7f 27 be a1 53 0b be
       0.20183662 -0.047852542 -0.16357253 -0.1360612
000010 94 c4 23 3e c1 db b9 bd d7 7b 82 3d 0c 8f 98 bd
       0.15992957 -0.09075118 0.06371277 -0.07449159
000020 00 7a 6e be 68 96 83 be cb 8f af bd 4a ed 70 bd
       -0.23288727 -0.25700688 -0.08572348 -0.058820046

module.spatial_attn_layers.0.attn.FC_K.weight f4 [12, 12]
000000 e9 dd 5d be 89 a3 5a 3d 6d a2 45 be 6c c7 ff 3d
       -0.21666683 0.053378616 -0.19300242 0.124892086
000010 6b b8 fe bd 66 54 85 be aa f3 04 3e 43 e8 14 3e
       -0.12437519 -0.26040953 0.12983575 0.14541726
000020 98 8e 67 3e de 51 3f 3c ec 04 f8 3d a2 7b 5a 3e
       0.22612989 0.0116772335 0.12110314 0.21336225
000030 0a 28 61 3e f3 31 fc 3d 79 a5 90 be 1a c2 72 be
       0.2198793 0.123142146 -0.28251246 -0.23706856
000040 70 1b 6b 3e 57 3f 49 bd cc 6b 4d be 63 7f e8 bd
       0.22959685 -0.04913267 -0.20060652 -0.11352422
000050 fc b9 49 be 98 f8 81 bc 69 cc 6e be 23 97 f9 bd
       -0.19699854 -0.015865609 -0.23320164 -0.1218703
000060 e5 6e 2b be dc 0a 48 3d a5 5a 8d be d0 5b 34 bd
       -0.16741522 0.04883848 -0.2760822 -0.04403287
000070 78 98 5a 3c 0c f1 6e 3e 59 58 69 be 5f e3 1c be
       0.013342015 0.2333414 -0.22787608 -0.1532111
000080 8b 1e 60 3d 98 4d f5 3b dd 53 23 be 79 46 44 3e
       0.054716628 0.0074860565 -0.1594996 0.19167508
000090 22 76 39 3e cf 65 2d 3e 4a a3 e5 bd cb ce 22 be
       0.1811147 0.16933368 -0.112127855 -0.15899198
0000a0 a1 5e 3d 3e 5b 64 23 bc b0 e9 12 3c c7 12 b1 bd
       0.1849313 -0.009972657 0.008966848 -0.086461596
0000b0 bf ff 6c 3d 30 57 71 bd 77 17 8c 3e 2d 76 1b bd
       0.057861086 -0.05892104 0.27361652 -0.037954498
0000c0 95 52 85 3e fd 81 22 3e 27 5f ed bd 44 71 ee bc
       0.26039568 0.15869899 -0.115904145 -0.029106744
0000d0 32 5c 65 3e 53 14 28 3c c4 36 53 3e a3 d3 33 3e
       0.22398451 0.010258752 0.2062636 0.17561202
0000e0 e7 38 ed 3d 0e 83 09 bc 00 9c 3b 3e 76 00 86 be
       0.11583119 -0.008393062 0.18321228 -0.26172227
0000f0 9c 2b 43 3e 03 04 95 3e f5 86 2b 3e 39 e6 2f be
       0.19059604 0.29104623 0.16750701 -0.17177667
000100 99 2f 54 3e d8 1f 2a 3e 50 47 46 3e dd 71 42 be
       0.20721282 0.1661371 0.19363141 -0.18988748
000110 f5 d6 da bd c4 20 a7 3d 42 50 75 be f0 0d 83 3e
       -0.10685531 0.081605464 -0.23956397 0.2559657
000120 ee 5b 34 3e f3 7c 0d 3c f8 eb e7 3a 85 c4 4b bc
       0.17613193 0.008635747 0.0017694226 -0.012436991
000130 28 46 d6 bd 49 b6 80 be 35 bb cb 3d ee 40 77 3e
       -0.104626 -0.25139073 0.09947816 0.24145862
000140 c9 83 83 3e 32 97 76 bd 23 b3 2f be da b5 9c 3d
       0.25686482 -0.060202785 -0.17158179 0.07651873
000150 5f 6c 66 be e7 ce 94 ba aa 02 de 3c 99 b5 08 3e
       -0.22502278 -0.0011353166 0.02710088 0.13350524
000160 a1 da e9 bd 71 9f eb bc 95 f6 90 3e f2 50 80 be
       -0.11418653 -0.028762551 0.28313127 -0.25061756
000170 60 34 18 bd 74 94 ee bd 5f e3 0d 3d 11 49 50 be
       -0.037159324 -0.11649409 0.034640666 -0.20340373
000180 97 81 b1 bd 95 ba 20 3e 71 78 95 bd d9 8d c0 bd
       -0.086672954 0.15696175 -0.07298363 -0.09402055
000190 93 90 87 3e f0 ee 2e 3d 44 57 ed bc b0 e3 3f 3e
       0.2647749 0.042708337 -0.028972276 0.187392
0001a0 d1 d1 72 be 51 4e 60 3d f3 c5 8b be 85 15 6c 3e
       -0.23712851 0.05476219 -0.2729946 0.23055084
0001b0 6a 10 61 be 92 eb 05 bd 29 55 08 3e 35 f9 4b 3e
       -0.21978918 -0.03269536 0.13313736 0.19919284
0001c0 fa be 13 3e 4d 72 82 3e c5 33 d5 bc 58 67 30 3d
       0.1442832 0.2547783 -0.026025662 0.043067306
0001d0 06 af de 3d 89 44 ac 3d 7f a3 7b 3e 34 ee 91 be
       0.10873227 0.084115095 0.24574088 -0.28502047
0001e0 ed 65 80 be e4 3d 7e 3d ff f8 05 3e 0e 47 92 bd
       -0.25077763 0.062070742 0.13083266 -0.07142459
0001f0 e0 7b a4 bb f5 8f 82 3d 99 4a 42 be e5 90 9b be
       -0.00501965 0.06375114 -0.18973769 -0.30383983
000200 7b aa 95 3d 2d 46 66 bd c8 91 0b 3e 87 4d 7e 3e
       0.07307907 -0.05621927 0.1362983 0.24834262
000210 35 0c d1 3c 41 58 90 be 41 37 80 3d 5e b8 97 bd
       0.025518516 -0.28192332 0.06260539 -0.07408212
000220 bf 40 93 3d 06 65 94 3d 37 91 8d be 89 c0 a9 bd
       0.07190084 0.07245831 -0.27649853 -0.08288676
000230 bd 75 90 3d 90 d2 2d bd 39 26 41 be 15 af 0e be
       0.07053707 -0.042437136 -0.18862237 -0.13933976

module.spatial_attn_layers.0.attn.FC_K.bias f4 [12]
000000 e2 67 3c 3e 8b 20 5e 3e d4 86 35 be b1 72 14 be
       0.18399003 0.21692102 -0.17727214 -0.14496876
000010 09 26 88 3e 8f 52 c3 bd 17 04 72 3e 19 55 32 be
       0.2659152 -0.09537231 0.23634373 -0.17415275
000020 05 15 87 be 01 af 92 3c b0 60 71 be 89 9e 23 3d
       -0.26383224 0.017905714 -0.2357204 0.039946113

module.spatial_attn_layers.0.attn.FC_V.weight f4 [12, 12]
000000 20 3f 12 3e 44 10 a9 3d 1f cc 31 3d d7 53 ca bb
       0.14281893 0.082550555 0.043407556 -0.0061745453
000010 23 c6 a3 3e 8f 88 9b 3e c5 20 69 be c0 7b 18 3e
       0.31987104 0.30377623 -0.22766407 0.14890957
000020 0f 66 8c 3e c0 fe aa bd 0b 39 7f bd e5 1a 93 be
       0.27421615 -0.08349371 -0.06231026 -0.28731456
000030 bf 52 e6 bd 53 ac 1e 3e e5 ea dc bd 8b 43 0c 3e
       -0.11246251 0.15495424 -0.1078699 0.1369764
000040 40 4f cc 3d 9b 9b 9f 3d a2 4b 66 be 6f c8 ce bc
       0.09976053 0.07793351 -0.22489789 -0.025242059
000050 c0 dc 14 be cf 03 a5 3c ae d8 2c 3e 98 cc c1 bd
       -0.14537334 0.020143418 0.16879532 -0.09462851
000060 22 fb 33 3d 54 dd 19 bd ac d2 88 be b1 4a 12 bd
       0.04394067 -0.03756459 -0.2672323 -0.035715763
000070 d3 c3 d6 3d d2 c1 48 3e 0e d0 2c be 0e 74 ab 3c
       0.10486569 0.19605187 -0.16876242 0.020929363
000080 9d 22 6b 3e c5 df fc bc 1a e9 47 be e7 9d 03 bd
       0.22962423 -0.03086842 -0.19522515 -0.03213301
000090 ec 60 32 be fd 37 ea 3c 8f 69 08 be e0 16 69 3e
       -0.17419785 0.02859115 -0.13321517 0.22762632
0000a0 64 90 a0 bd a2 7e 19 be 68 1f 45 3e 93 b1 4e 3e
       -0.0784004 -0.14989713 0.19250262 0.20184927
0000b0 01 0e 04 3e 83 0a d4 bd 7b 6a bd 3d 4c fc aa 3e
       0.12895967 -0.103535675 0.09248825 0.33395612
0000c0 61 8e a8 3d db 2a 37 3e cc a8 d9 bd ac 91 9f 3e
       0.082302816 0.17887442 -0.106278986 0.31165826
0000d0 cc 80 9a be ed f5 9d bc e8 db 62 3e ae 8f 1e be
       -0.3017639 -0.019282306 0.221542 -0.15484497
0000e0 d2 c2 6a 3e 0f 56 5b be 53 89 2e be f0 fc 48 be
       0.2292588 -0.21419547 -0.17044573 -0.19627738
0000f0 6a 1b 75 be 36 76 16 be 38 11 22 3e 9f ce 12 3e
       -0.23936239 -0.14693531 0.15826881 0.14336632
000100 47 46 8c 3e 96 8c 6a 3d 61 c5 23 3e f9 bf d2 bd
       0.27397367 0.05726298 0.15993263 -0.10290522
000110 88 1e 4a 3d c7 cc 03 3e 06 a2 ba bd aa 3c 0e bd
       0.049345523 0.12871085 -0.09112935 -0.034725823
000120 f7 ee 85 be b8 6c 55 be e6 aa 50 3e b4 6e 21 bd
       -0.26158878 -0.20842254 0.20377693 -0.039412215
000130 ed 71 90 be 3e 25 b3 bd 60 d0 6c bd a5 69 f8 bd
       -0.28211918 -0.08747338 -0.05781591 -0.12129525
000140 9b f7 61 3d ed 22 8d be b7 96 15 bd ef d4 7e 3e
       0.055167776 -0.2756571 -0.036520686 0.24885915
000150 f4 c3 e0 3d ba 1d 0a 3e c5 8d dc 3d c0 4d 63 bc
       0.10974875 0.13487902 0.10769228 -0.0138735175
000160 02 9b 77 3e f1 f5 c4 3d ff 3f 26 bd 86 bf 36 3e
       0.24180225 0.09617222 -0.040588375 0.17846498
000170 03 7b a8 3c d1 a4 84 3e 8d 2f 84 3e 6b 33 fa 3d
       0.020566469 0.25906995 0.25817528 0.122168384
000180 3f d0 1b 3d e0 e2 27 be 71 35 6d be e4 f1 3d bd
       0.038040396 -0.1639514 -0.23164918 -0.046373263
000190 b5 be c7 3d bc 6b 39 3e 14 0d d5 3c b1 70 97 be
       0.09753171 0.18107504 0.026007213 -0.29578164
0001a0 1c ff 34 be 8f bb 9a bd 92 d2 cd bd ac 2c 3b 3e
       -0.17675442 -0.07555305 -0.10049929 0.1827876
0001b0 61 13 40 be a7 f3 4a 3e 2a 2b 87 be fc 73 9a be
       -0.18757392 0.19819508 -0.2640012 -0.30166614
0001c0 e8 33 3a be 3a ea 91 be 7e 3a e9 3d 76 a4 7f be
       -0.18183863 -0.28499013 0.113881096 -0.2496508
0001d0 85 0a 2f 3c 98 04 30 3e ad 2e ed 3d d6 58 81 be
       0.01068366 0.17189252 0.11581168 -0.2526309
0001e0 0a 25 48 3e 37 0e 9b be ad d2 45 3c 91 b8 49 3e
       0.1954538 -0.30284283 0.012074155 0.19699313
0001f0 66 ab 58 bc ad 8e 6c 3d af b9 22 3e e8 73 be 3d
       -0.013224458 0.057753254 0.15891145 0.09299451
000200 f5 af 01 be f9 10 88 be 35 ec 29 3e 71 7e 3f be
       -0.12664779 -0.2657545 0.16594012 -0.18700577
000210 0b a1 6f be 50 ba f9 bd 18 b4 92 3e a2 91 dd bc
       -0.23401277 -0.121937394 0.28653026 -0.027046982
000220 ef aa f9 bd 5a 31 4a 3e 46 66 0b be 6c 28 c8 bb
       -0.12190806 0.19745389 -0.13613233 -0.0061083343
000230 01 42 21 3c 9d b5 91 3e da a1 33 3e 46 3b 5e 3e
       0.009842397 0.28458872 0.1754221 0.21702299

module.spatial_attn_layers.0.attn.FC_V.bias f4 [12]
000000 18 94 80 be 8f c4 68 be c9 77 ba bd c5 b7 b5 39
       -0.25112987 -0.22731231 -0.091048785 0.0003465993
000010 1a 86 fe 3c ba af ff 3d 45 45 7c be 48 d1 5f 3d
       0.031069804 0.12484689 -0.24635799 0.054642946
000020 b6 2d e4 3d 36 a5 14 bd b6 2e 07 bd 86 e3 0c 3d
       0.11141531 -0.03629037 -0.03300353 0.03439667

module.spatial_attn_layers.0.attn.out_proj.weight f4 [12, 12]
000000 42 8b 10 3e a1 1b d5 3d c0 0d 06 be e2 4c 1c 3e
       0.14115623 0.104056604 -0.13091183 0.15263703
000010 56 f7 4d be 14 0b f2 3d 74 9e 2c be f6 f0 52 3e
       -0.20113882 0.11818519 -0.1685732 0.20599732
000020 2e ef f2 bc 64 ec 72 3e 3c 3d 3c bd 03 0b d5 3b
       -0.029655065 0.23722988 -0.045956835 0.006501557
000030 6a 07 63 be b0 7e 8c 3d 17 18 8d be 29 08 09 bc
       -0.22170797 0.06860101 -0.27557442 -0.008363762
000040 f1 88 f5 bd 3f c8 dc bd cb 60 5e 3e 88 6a 3b 3d
       -0.1198901 -0.107803814 0.21716611 0.045755893
000050 83 84 8a 3e 89 f1 19 3e 9f c1 3b be 81 ff 83 be
       0.27054223 0.15033545 -0.1833558 -0.25780872
000060 6a e0 cd 3d ac 87 c6 3d 9f bf 1d be 24 97 df 3d
       0.10052569 0.09693846 -0.15405129 0.109175
000070 33 70 45 bd cb cc 6e 3e df 04 a3 3d 04 b5 64 3e
       -0.048202705 0.2332031 0.079599135 0.22334677
000080 cd 54 76 3c 2c 1e d0 bd 1a bc 1b bd f9 0a fb 3c
       0.0150348665 -0.10162005 -0.038021185 0.03064488
000090 ba 14 6c 3e 6a 06 66 3d ed c5 94 bd c3 2d 96 3d
       0.23054782 0.05615846 -0.07264314 0.07332947
0000a0 10 52 7f be 58 71 29 3e fa c9 81 3e 9d 80 a5 3d
       -0.24933648 0.16547143 0.25349408 0.08081172
0000b0 38 4e 2c 3d a8 65 7d 3e fd 40 4a be 74 8c 89 be
       0.042066783 0.2474581 -0.19751354 -0.2686497
0000c0 7b 25 24 3d 3c c5 64 be ef 28 c0 bd 3d 1f ea 3b
       0.040074807 -0.22340864 -0.093828075 0.007144837
0000d0 c0 02 39 3e 9d 2c 91 bc 7a e7 97 be 81 44 ab 3e
       0.18067455 -0.017721469 -0.2966879 0.33450702
0000e0 e1 72 af bd 00 9b 40 be 7f 28 28 3e 3e 1a ca 3d
       -0.08566833 -0.18809128 0.16421698 0.098682866
0000f0 9a 2b f8 3c be 41 b9 bd 42 b6 1d 3e 8d 2b 04 be
       0.030294228 -0.090457425 0.15401557 -0.12907238
000100 46 97 0d 3e 11 50 80 3e b0 33 9e bd e5 d4 61 3d
       0.13827237 0.25061086 -0.07724702 0.055134673
000110 6c 49 93 be 7e 7e 04 be 00 ba 41 3e 1d 3e 06 3e
       -0.28766954 -0.12938878 0.1891861 0.13109632
000120 1a ab 59 be 4f 24 b6 bd d3 3c 08 be b2 9b 61 3e
       -0.21256676 -0.08893644 -0.13304453 0.2203205
000130 82 11 99 3e ed ec ff bd e3 2a 0a be 4f 49 84 be
       0.2989617 -0.12496362 -0.13492922 -0.2583718
000140 dc 24 8d bc 53 7a 5c 3e 7c 33 9f 3d ac 26 28 be
       -0.01722949 0.21531038 0.07773492 -0.16421002
000150 03 8a 61 be 21 d5 da 3c 48 3e cb 3d bd 76 3e 3e
       -0.22025304 0.026712956 0.099239886 0.18599983
000160 99 8b 25 3e 96 70 10 3e 4a 3a cf bc c4 77 65 be
       0.16166534 0.14105448 -0.02529635 -0.22408968
000170 31 23 a4 be 08 14 eb bd 78 ca 95 bd c1 32 1f be
       -0.320581 -0.1147843 -0.073140085 -0.15546705
000180 1a 71 50 be b8 04 c0 bd 7a e6 70 3e f3 2e 0b 3d
       -0.20355645 -0.093759 0.2352542 0.03398032
000190 94 73 84 3e c7 b3 0d 3e 7f dc 23 be e6 ac cd bd
       0.2586943 0.13838111 -0.16002081 -0.100427434
0001a0 4e 5e 97 3d 39 02 ff bd 67 5e 3c 3e f1 8b c1 bc
       0.07391034 -0.12451596 0.18395387 -0.0236263
0001b0 fe b4 1a bd 73 17 7a be cb cd 61 be 45 f7 aa 3d
       -0.037770264 -0.24423008 -0.2205116 0.08347944
0001c0 e3 1e 68 3e 6e 85 4c be 17 6b 0c 3e 64 16 08 3e
       0.22668032 -0.19972774 0.13712727 0.13289791
0001d0 c3 6e 8a 3e 64 32 8a be a7 90 10 be ed 27 23 bd
       0.2703763 -0.2699157 -0.1411768 -0.039832998
0001e0 ab e4 3e bd 9c ed 2f be c4 5e cc 3c 01 3c 2c 3e
       -0.046604794 -0.17180485 0.024947532 0.16819765
0001f0 96 dd eb bc 5b 2a 2f 3e 1f 75 a4 bd 9a 3f a9 3e
       -0.028792184 0.17106001 -0.080301516 0.33056337
000200 89 79 68 be ed 9d 94 be 1e e7 79 be 82 d5 2e be
       -0.22702612 -0.29026738 -0.2440457 -0.17073634
000210 df 6f 42 3e b6 99 ff bd 27 16 69 be 71 84 b0 bc
       0.18987988 -0.1248049 -0.22762357 -0.021547528
000220 aa c7 35 be 9f d0 f8 bd 1d 4d 87 3e 6d 3c 0b 3e
       -0.17751947 -0.12149166 0.2642602 0.1359727
000230 25 43 58 3e 6c 92 54 3e 47 8f b4 bd f1 33 73 bd
       0.21119364 0.2075898 -0.088163905 -0.059375707

module.spatial_attn_layers.0.attn.out_proj.bias f4 [12]
000000 f3 b8 24 bd a4 26 3d 3e c0 8e 7e bd 56 eb 10 3d
       -0.040215444 0.18471771 -0.062147856 0.035380684
000010 62 6b fd bd e9 5f af bd 89 2a 32 3e 8e 56 6f 3e
       -0.12373997 -0.08563215 0.17399038 0.23372862
000020 83 d7 3f 3e 61 6a 0d be 7e ed 36 3d 8b a1 81 3c
       0.18734555 -0.13810112 0.044660084 0.0158241

module.spatial_attn_layers.0.feed_forward.0.weight f4 [48, 12]
000000 11 a8 3f 3e 52 73 5b bc a3 eb 2c 3e e3 89 3e 3e
       0.18716456 -0.013394194 0.16886763 0.18607287
000010 7c 1a 89 3e 4c 2b 68 3e b3 7b 95 be 53 5d 14 3e
       0.26778018 0.22672766 -0.29195938 0.14488725
000020 73 80 86 3e d5 ed e7 bd ab 59 3a 3e 3b 1a 93 be
       0.26269874 -0.1132466 0.18198268 -0.2873095
000030 8e 0c 69 be cc c7 47 bd c5 fd 3c 3e d1 ae 76 be
       -0.22758695 -0.048774526 0.1845618 -0.24090125
000040 f4 72 36 3b 92 81 3e be d8 3e 2a bd 40 bc 05 3d
       0.0027839513 -0.18604115 -0.04156384 0.032650232
000050 7a 4e 8e 3e 53 34 8f be de 1b 73 3e 2a a2 b8 bd
       0.27794248 -0.27969608 0.23741099 -0.09015305
000060 fb db 18 3e 60 15 90 3d e8 44 7f be 42 ef 09 3e
       0.14927666 0.07035327 -0.2492863 0.13470176
000070 8d d5 91 3e 27 50 19 bd ed 53 28 3d b6 4a 92 be
       0.2848324 -0.037429955 0.041095663 -0.28572625
000080 66 94 0e 3d 22 ea 5d be d9 0b f5 3c 41 48 21 3d
       0.034809493 -0.21671346 0.029912876 0.039375547
000090 fc b2 4b 3e 65 6d 25 be 67 84 45 be ba 3d 93 3c
       0.19892496 -0.16155012 -0.19288789 0.01797377
0000a0 08 38 bd 3d ec 7c 39 3d ae d6 4b 3c 4b b1 5a be
       0.09239203 0.04528515 0.01244132 -0.21356694
0000b0 30 31 e1 bc fc 77 60 3d 57 0a 98 bd c4 ab 83 be
       -0.027489275 0.054801926 -0.07423847 -0.25716984
0000c0 2e a5 63 3d 77 a4 68 be c4 61 f6 3d f4 e2 69 3e
       0.05557745 -0.22718988 0.12030366 0.22840482
0000d0 1a 7b b6 bd ab a8 87 bd 9c f5 b4 bd 0a 8c 8e 3e
       -0.089101985 -0.06623968 -0.08835909 0.27841216
0000e0 71 0e 59 3e 08 68 a6 3d e9 56 23 3e 5a 87 d8 3c
       0.21196915 0.08125311 0.15951122 0.026431728
0000f0 ec 0f 96 be 12 ce d8 3d 37 df 56 3e 27 e1 00 3e
       -0.29309022 0.1058618 0.20983587 0.12585889
000100 f7 c7 7e 3e cf 55 9f bd 67 d1 5f 3e 2a 65 8d bd
       0.24880968 -0.077800386 0.21857224 -0.06904061
000110 63 3c 85 be 51 9a bc 3a f2 19 30 3d 1e bb 89 bd
       -0.26022634 0.0014389252 0.042993493 -0.06725143
000120 d1 a9 0e be 08 bc fc bd 4c c2 85 3e 20 36 1a 3e
       -0.13931967 -0.123405516 0.261248 0.1505971
000130 83 06 46 bd 76 e5 6a be 00 97 23 3e 11 5f 18 be
       -0.048346054 -0.22939095 0.1597557 -0.14880015
000140 38 4c 86 bc ba 1e b0 bd f1 26 cd 3d f0 af 17 ba
       -0.016393766 -0.085996106 0.10017193 -0.00057864096
000150 c6 82 83 bd 01 89 46 3e 01 ee 6b bd b0 2b 5a bd
       -0.064214274 0.193882 -0.057600025 -0.05326432
000160 c4 b6 a1 3d 20 6a 3d 3c 28 5f 4b be 4a 58 7a be
       0.07896188 0.011560947 -0.19860518 -0.24447742
000170 e6 e7 f8 bd 64 48 7e 3e b5 d6 76 be 78 cb 5d bd
       -0.12153606 0.24832302 -0.24105342 -0.05414912
000180 e0 66 ef bc 44 df 51 be 95 92 f9 bd 6f eb 6b 3e
       -0.02922386 -0.20495325 -0.121861614 0.2303903
000190 a1 7d 7a 3e 91 1d 02 3e df 88 82 be aa 71 8e 3d
       0.24461986 0.12706591 -0.2549505 0.069552734
0001a0 ff 78 81 3e 09 83 da 3d 9f 38 3b 3e 46 2b 7e 3e
       0.25287625 0.10669524 0.18283318 0.24821195
0001b0 b5 02 28 be 4c b6 f0 bd fa 2c cf bd a5 26 62 be
       -0.16407283 -0.1175352 -0.101160005 -0.22085054
0001c0 2b 1c 42 bd 70 3f 99 3e c3 c6 6b 3e 60 9e 3c 3e
       -0.047390144 0.2993121 0.2302504 0.1841979
0001d0 94 33 6b 3e 53 32 8a be ad b2 66 be f7 fe 88 3c
       0.22968894 -0.2699152 -0.22529097 0.01672314
0001e0 f3 09 81 3e ac a7 71 3a 49 bd d8 bd 7f e5 57 be
       0.25202903 0.00092184055 -0.10582978 -0.2108364
0001f0 ce ce 32 bd 2f 0d eb 3c 79 99 13 3d 63 eb 55 3e
       -0.043654256 0.02869281 0.036035035 0.20890574
000200 b8 5f 96 3e c5 49 5c be 07 34 76 bd 49 31 97 bd
       0.29369903 -0.21512516 -0.06010821 -0.07382447
000210 19 db da 3d 4b 89 90 be c9 7d 39 be 22 0c 56 bd
       0.10686321 -0.28229746 -0.1811439 -0.052257665
000220 67 6a 7a be 47 7b f5 3d b4 b0 7a be ab e8 2d bd
       -0.24454652 0.11986404 -0.2448147 -0.042458218
000230 07 79 33 3d 05 6c 3e 3e 5e a7 60 3e 78 e2 9c bd
       0.043816593 0.18595894 0.21938846 -0.07660383
000240 01 10 47 be 48 1d 82 bd 00 3b 5c be bf 7c 31 3a
       -0.19439699 -0.06353241 -0.21506882 0.0006770603
000250 e4 e7 6f be d3 31 76 3e f6 b8 b1 3d c8 6e 27 3e
       -0.23428303 0.24042444 0.086778566 0.16350853
000260 86 92 f7 3d 3d 48 6c be 1f cc 1c 3e 1f b7 1b 3d
       0.12088494 -0.23074432 0.15312241 0.038016435
000270 fe 30 8a be d5 85 5c 3e 72 1f 10 bd ee 5f 07 3e
       -0.26990503 0.21535428 -0.03518624 0.13220188
000280 47 21 c9 bd d5 3f 5f 3e 96 a5 ff bd 86 42 3f 3e
       -0.098208 0.21801694 -0.12482755 0.1867772
000290 2f 45 bd 3d 87 57 02 be cf ec a2 3e 04 af 49 be
       0.09241711 -0.12728702 0.31821296 -0.1969567
0002a0 34 4f 2a 3e b1 ea 95 3e 46 50 84 bd 50 5e 12 3c
       0.16631776 0.29280618 -0.064606234 0.008933619
0002b0 0f f7 94 be 7c 8d 77 3e 0a 86 8e 3e 77 19 90 be
       -0.2909474 0.24175066 0.2783664 -0.28144428
0002c0 b7 65 4b be 66 14 db bd 07 b1 89 be 98 99 63 be
       -0.1986302 -0.1069725 -0.26892874 -0.2222656
0002d0 cc d4 3d be e0 47 84 be 15 fe 4d be 86 7a 2d 3e
       -0.18538207 -0.25836086 -0.20116456 0.1694127
0002e0 ae b7 5a bd 16 97 1b be 9b 46 6c bd 17 6f ea bd
       -0.053397827 -0.15194353 -0.057684522 -0.1144697
0002f0 f7 ee 51 be fb 38 84 bd ac 28 9d bd 92 08 62 be
       -0.20501314 -0.06456181 -0.07673773 -0.22073582
000300 1c 70 f6 bd 1b 4d fb 3d 16 23 2b bd 9f bb 73 bd
       -0.12033102 0.12270566 -0.041781507 -0.0595051
000310 d7 e2 f2 3d 8b 95 31 3d 71 85 46 be b9 89 51 3e
       0.118596725 0.043355506 -0.19386841 0.20462693
000320 62 85 5b be 73 75 67 be 55 3f 7a 3e 38 1e d0 3c
       -0.214376 -0.22603397 0.24438222 0.025405034
000330 41 f4 50 be 7e 13 1e be 5b 6e 5c be 32 8b 73 be
       -0.20405675 -0.15437123 -0.21526472 -0.23783568
000340 13 9a eb bd 9c 10 89 3e cb e9 87 3e 68 2b 71 3e
       -0.11503997 0.26770484 0.26545557 0.23551714
000350 86 03 55 be bd 94 95 bd 62 6d c0 3d c9 4a 25 be
       -0.20802125 -0.0730376 0.09395863 -0.1614181
000360 2b 71 d9 bd 73 1e 61 3e 21 20 55 bd 9e 01 0c 3c
       -0.10617288 0.21984272 -0.052032594 0.008545307
000370 cf 29 c3 bd be bc cf 3b 42 5e 8c 3e 33 dc f1 bd
       -0.09529459 0.0063396385 0.27415663 -0.11809578
000380 b4 4a 5b 3e 7a 2d 65 3d a4 4f 92 3e ff ff 2b 3e
       0.21415216 0.055951573 0.28576386 0.16796874
000390 72 0f 7d be 39 52 98 3d 39 20 38 be df 79 80 bd
       -0.24712923 0.07437558 -0.17981042 -0.06273245
0003a0 40 96 59 3e 95 8b 81 be 20 e5 00 bd f2 45 8e 3c
       0.21248722 -0.25301805 -0.03146851 0.017367337
0003b0 ee f5 70 be 7c fc 1b 3d e6 cd 10 be 0b ca 24 be
       -0.23531315 0.038082585 -0.14141044 -0.16092698
0003c0 82 54 84 3e a5 57 c6 3c 27 7f 62 3e 29 b0 8c 3e
       0.25845724 0.024211714 0.22118817 0.2747815
0003d0 cf 46 71 be db 42 bd 3d 3c e5 2f 3e 1f 17 a7 3d
       -0.23562168 0.09241267 0.1717729 0.08158707
0003e0 56 48 06 be 24 2d 54 3e 52 ec 4e 3e fc b4 b8 bc
       -0.13113531 0.20720345 0.20207337 -0.022547238
0003f0 ac b8 80 be 34 b5 80 3e 04 16 6c be d5 c1 53 3e
       -0.25140893 0.25138247 -0.23055273 0.2067941

module.spatial_attn_layers.0.feed_forward.0.bias f4 [48]
000000 f8 42 79 3e 61 57 ae bd 42 63 06 be 54 54 25 3c
       0.24341953 -0.0851276 -0.13123801 0.010090906
000010 c4 7b 23 be 5d 1c 5c 3e 75 16 20 bd 9e fe 73 3e
       -0.15965182 0.21495195 -0.039083917 0.23827597
000020 06 21 c6 3c 7b d6 a5 3d 3e b5 41 be b5 8d 04 be
       0.024185669 0.080975495 -0.18916795 -0.12944682
000030 ba 91 8c 3e d2 de 28 be 4a 7c 31 be 72 51 01 be
       0.2745493 -0.16491249 -0.17332569 -0.12628725
000040 a6 57 dd 3d e4 ff c7 bc 33 45 68 bd 10 32 12 3c
       0.10807733 -0.02441401 -0.05670662 0.008923069
000050 67 ff 07 be a2 5e 40 3d f4 e4 58 be 58 f7 9b bd
       -0.13281022 0.04696525 -0.21181089 -0.076155365
000060 30 56 28 3e 9d d5 1a 3d c7 0d 7f 3e 9e 79 35 3e
       0.16439128 0.037801374 0.249076 0.17722175
000070 4e ac 38 3e de e1 41 be ec ef 3e 3c 09 80 18 3e
       0.18034479 -0.18933818 0.0116538815 0.14892592
000080 86 c8 08 be 95 5e 9d 3d 5f 16 3a 3e 9a d1 84 3e
       -0.13357744 0.07684056 0.18172596 0.25941163
000090 88 23 29 3e 0a ec 14 be fc 8b 1f 3e 6e bf 2e 3e
       0.1651746 -0.14543167 0.15580744 0.17065212
0000a0 47 77 0a be a3 82 93 bd ed f7 0c 3e 58 e0 27 be
       -0.13522063 -0.07202651 0.13766451 -0.16394174
0000b0 2c 81 bd 3c 3d dd 92 be 76 46 40 3d 4f 5d 55 be
       0.023132883 -0.28684416 0.046942197 -0.20836376

module.spatial_attn_layers.0.feed_forward.2.weight f4 [12, 48]
000000 e9 d9 04 3e 45 10 af bc b4 c8 ab bd d8 00 c5 3c
       0.12973751 -0.021370063 -0.083878905 0.024048254
000010 6e 9e 12 3e b7 a0 8f 3d 51 67 b8 3d 37 c7 ef bc
       0.14318249 0.07013076 0.09004081 -0.029269798
000020 35 ba cb 3d 6c 46 03 be d1 28 cb 3d 1f 5e 91 3d
       0.099476255 -0.12819833 0.099198945 0.0709803
000030 ed 9c 29 bd d0 8c fe 3d 10 b4 f0 3c 0f 81 4f bd
       -0.04140942 0.124292016 0.029382735 -0.05066019
000040 30 eb 00 bd 83 30 9e 3d 23 fe da bd 4b 45 ad 3c
       -0.031474292 0.077240966 -0.10693004 0.021151206
000050 51 04 1c bd 57 19 06 3e 2d ef c1 bb 72 3d dd 3c
       -0.038090054 0.13095604 -0.0059184046 0.027006838
000060 a1 56 61 3d a8 97 dc 3c b1 b7 55 bd 1f 68 93 3d
       0.055014256 0.026927784 -0.052177135 0.07197594
000070 fe 0c e2 bc b5 7e 32 3d bd 42 db bd 6f e8 4f 3e
       -0.027594086 0.04357787 -0.10706089 0.2030351
000080 68 08 ef bd bd ca ce 3d f5 47 dd 3d 9d 8e ed bd
       -0.11671525 0.10097263 0.1080474 -0.11599467
000090 8e 36 ba 3c f3 82 c7 bd 65 76 e7 bd 46 c0 9a 3d
       0.022731092 -0.097417735 -0.11301879 0.075562045
0000a0 d5 8d f5 3d 91 8c fd 3d a1 d7 95 bc ea be 51 3d
       0.11989943 0.123803265 -0.018291296 0.05120746
0000b0 e3 a7 f2 3d 73 cd b6 bc 7a 65 d0 bd 47 08 ae 3d
       0.11848428 -0.022314763 -0.10175605 0.084976725
0000c0 0a 31 4d bd 8b 75 c5 3c 87 12 65 3c 13 89 95 bd
       -0.050095595 0.0241039 0.013981468 -0.073015355
0000d0 fb 12 f3 3d 74 09 f0 3d ed 8e 71 bd 32 bc 89 bc
       0.118688546 0.11720553 -0.058974195 -0.016813371
0000e0 e5 d6 0d be be 9a 66 3d 48 2d 9e 3d fe 81 11 3e
       -0.13851507 0.056299917 0.077234805 0.14209744
0000f0 9c 3f b3 3d 0b e4 1e be ec 9a 1e 3d d5 27 ab bd
       0.08752367 -0.15516679 0.038721964 -0.08357207
000100 37 68 e9 3c 1c 7f a8 3c ca f4 c0 3d f8 1a 01 be
       0.028492076 0.020568423 0.0942169 -0.12607944
000110 e0 1a 81 3d 56 c3 11 be 28 c5 5f bc 07 49 40 bd
       0.06303954 -0.14234671 -0.013657846 -0.046944644
000120 e1 77 06 3d ac 42 be bd 9b 64 01 be e3 5b b3 3d
       0.03282917 -0.092900604 -0.12636034 0.087577604
000130 0f a7 12 3d 41 a9 95 3d b2 20 96 3c 0c 4e e4 bb
       0.03580385 0.07307673 0.018326137 -0.0069673117
000140 87 e1 17 be 69 3f 98 bd 5a bf ac 3d f8 9d b6 3c
       -0.14832126 -0.074339695 0.08434935 0.022292122
000150 49 fa 9a 3d c2 60 81 bd 9c 07 93 bd 70 78 c0 3c
       0.07567269 -0.06317283 -0.07179186 0.02349493
000160 21 a3 75 3c 1d 13 ba 3c 08 b5 07 be dc 1f 0e 3e
       0.014992506 0.022714192 -0.13252652 0.13879341
000170 a2 cc fd 3d 40 ae 60 3d 4c 51 04 be cc e5 9b bd
       0.12392546 0.054853678 -0.12921637 -0.0761219
000180 f1 ba ae 3d e9 33 0a be 1a 45 84 3b e0 9f c9 bd
       0.0853175 -0.13496365 0.004036558 -0.09844947
000190 82 e7 03 3e 49 88 20 be a0 a5 6d bd 8d b9 12 be
       0.12881282 -0.15676989 -0.05801928 -0.14328595
0001a0 12 fd e9 bd fd 82 0e bd 82 03 b5 3d 9e 85 02 be
       -0.114252225 -0.03479289 0.0883856 -0.12746283
0001b0 be 17 0e bb 00 f6 8e 3c 43 85 2d 3e 6e 9d 9a 3d
       -0.0021681632 0.017451286 0.16945367 0.075495586
0001c0 f8 63 e7 3d ad 79 a8 bd 3e 6a 20 bd 58 6e 0f be
       0.112983644 -0.08226333 -0.03916382 -0.14006937
0001d0 53 be 46 3d 68 5c b0 3d 5c 76 17 3e 3e 61 aa bd
       0.04852135 0.08611375 0.14791244 -0.08319329
0001e0 d5 77 13 be 49 1a 9d bd 95 67 c5 3c 6e 75 3c 3c
       -0.14401181 -0.07671029 0.024097243 0.011502607
0001f0 33 ea e9 bd f1 a8 de 3c 77 9a 23 3d 6a bc cc 3c
       -0.11421623 0.027180167 0.03994223 0.024992187
000200 f8 4a a6 3d 30 ca b0 bc 81 00 b3 3d 8f 7e 8f 3d
       0.08119768 -0.021580786 0.087403305 0.07006561
000210 01 79 f9 bd aa 11 5a 3d 29 2e 37 bd ee 0c bb 39
       -0.12181283 0.053239502 -0.044721756 0.00035677053
000220 70 78 eb 3d 56 c9 b1 bd e7 a2 4b bd 34 39 68 bd
       0.11497581 -0.0868098 -0.049715903 -0.05669518
000230 b3 5e c7 bd 68 b7 07 be 09 cb 52 bd 3b 7f 8f 3d
       -0.09734859 -0.13253558 -0.05146316 0.07006689
000240 fb 23 14 be 23 40 f1 bc 34 e0 f5 bd 34 b3 c6 3d
       -0.1446685 -0.029449528 -0.12005654 0.09702149
000250 d7 db a8 bd af 12 55 3c 0e d1 14 be 28 7b f1 bd
       -0.08245056 0.013004943 -0.14532873 -0.11791068
000260 85 f7 3b 3d 98 43 5e 3d a3 19 67 3d 79 d9 12 be
       0.04589035 0.05426368 0.056420933 -0.14340772
000270 07 aa 0b 3e 75 58 d9 bd 6f c7 1c 3e b9 7b ec bd
       0.13639079 -0.10612575 0.15310453 -0.11547036
000280 c7 b4 b7 bc e6 65 cc bd ff 52 8a bd 1d 5e cb 3d
       -0.022425069 -0.09980373 -0.067541115 0.0993006
000290 b6 03 b8 bd 50 c3 f1 bd c2 6b e1 3c 29 0b 41 bb
       -0.08985083 -0.11804831 0.027517203 -0.0029456115
0002a0 8f 08 05 3d a3 db a3 3d 84 fc ad bc 6f c5 b5 3c
       0.032478865 0.08000877 -0.021238573 0.02218887
0002b0 27 26 ff 3b 57 b8 0d 3d b4 69 0a be af 56 c5 bc
       0.0077865305 0.03459963 -0.13516885 -0.024089186
0002c0 a0 85 82 3b 2c 6e e5 3c 4d 23 1e be b8 0a d9 3c
       0.0039832145 0.028006636 -0.15443154 0.026494369
0002d0 88 ce 19 bc b7 13 f0 bc da 76 7a 3d 9c 37 04 3e
       -0.00938762 -0.029306276 0.061148502 0.12911838
0002e0 be a9 9b bd 2d fd 44 be e6 13 90 3d 97 80 ba 3c
       -0.07600735 -0.19237204 0.07035045 0.022766395
0002f0 58 d6 43 bd dc 8f 8a 3d 12 67 ea 3c 58 22 83 3d
       -0.047811836 0.0676572 0.0286136 0.06403035
000300 50 47 2a 3e 6a 08 5b bd 6a 39 17 be 24 ff de bd
       0.16628766 -0.05347482 -0.14767995 -0.10888508
000310 5b 75 b2 3d d8 b1 52 3d 57 6e 19 bb c5 f5 f9 3c
       0.0871379 0.051439136 -0.0023411715 0.0305127
000320 30 68 c4 3c 75 83 47 bd dd 85 6a 3d a3 f7 53 bd
       0.023975462 -0.04870935 0.05725657 -0.051749837
000330 2c aa 3c 3d ca 1c 86 3c e6 0b 16 be 62 c1 85 bd
       0.046060726 0.01637115 -0.14652976 -0.065310255
000340 a1 28 18 bd 8d a4 0b bd 10 68 c1 bc 28 1b ae 3b
       -0.03714812 -0.034092475 -0.023609191 0.005313296
000350 82 b4 0e be c7 eb ba bd 46 cc 90 3d 48 c3 40 38
       -0.13936046 -0.09127002 0.07070212 4.5958237e-05
000360 c5 0d 05 3e 7c 63 a5 3d 8d 56 05 bd b5 c4 d2 3d
       0.12993534 0.08075616 -0.032553244 0.10291425
000370 77 47 f5 bd 47 7c eb bc 24 6f 88 3d e9 6a 3b 3e
       -0.119765215 -0.028745783 0.066618234 0.18302502
000380 0b 72 8a 3d 79 e9 0d 3d 84 24 a0 3d a3 e4 59 bd
       0.06760033 0.034646485 0.07819465 -0.05319656
000390 df 70 1a 3e b8 d0 8f bc c9 76 0a bd 3b 6a 82 3d
       0.1508212 -0.01755558 -0.03380469 0.06367918
0003a0 a9 e2 0d bc f6 36 44 bd c9 f1 a5 3d 4c 85 ba 3d
       -0.008659997 -0.047903977 0.081027575 0.091074556
0003b0 1e 5f ee 3d 00 da 5e 3b 46 9a 05 3e f5 d1 f7 3d
       0.11639236 0.003400445 0.13047132 0.12100593
0003c0 53 3e 05 3d 76 1c 6c bd 31 77 07 3e 42 cd 32 3e
       0.03253014 -0.05764433 0.13229062 0.17461112
0003d0 4b 1f 0d 3e 68 1d c5 3d 93 c7 3c 3e ad 09 36 3e
       0.13781469 0.096247494 0.18435507 0.17777129
0003e0 89 b2 9d bd b1 5b 01 be 51 51 10 be e5 db ad 3c
       -0.077000685 -0.12632634 -0.1409352 0.021223018
0003f0 f7 b5 eb bd a4 88 bf bd b4 e6 7c bd cf 00 ae bc
       -0.115093164 -0.09352234 -0.061743453 -0.02124062

module.spatial_attn_layers.0.feed_forward.2.bias f4 [12]
000000 54 ae 8d bd 55 b3 e0 bd 87 bf 91 bd 70 c5 e8 3d
       -0.06918016 -0.10971705 -0.07116609 0.11365783
000010 57 b6 da bd 0e 57 c8 bd 6c 46 84 bc b5 98 5f 3d
       -0.1067931 -0.09782229 -0.016146861 0.054588992
000020 db 92 34 3c eb 3b 10 3e 6a 97 c9 bd 10 b5 f0 bd
       0.011021341 0.14085357 -0.09843333 -0.11753285

module.spatial_attn_layers.0.ln1.weight f4 [12]
000000 62 2b 7c 3f 0b c6 80 3f b3 89 80 3f 74 7f 7c 3f
       0.98503697 1.0060438 1.0042022 0.9863198
000010 50 84 85 3f 67 fd 80 3f dd 49 7f 3f 60 8f 83 3f
       1.0431004 1.0077332 0.9972208 1.027813
000020 14 dd 7c 3f 76 3f 7e 3f 35 36 84 3f 24 fd 80 3f
       0.9877484 0.99315584 1.0329043 1.0077252

module.spatial_attn_layers.0.ln1.bias f4 [12]
000000 e2 52 66 bb 82 29 1c 3c 8d 71 5a 39 d1 9e 32 3c
       -0.0035144617 0.009531381 0.00020832401 0.010902123
000010 b8 82 0b 3c 6a 8e d7 bb da 96 20 bc cd de a8 39
       0.0085150525 -0.0065782564 -0.009801591 0.00032209457
000020 d7 11 8d bc 20 83 38 3b 83 91 12 3c 00 fc 3f bc
       -0.01722042 0.0028154328 0.0089458255 -0.011717796

module.spatial_attn_layers.0.ln2.weight f4 [12]
000000 fb 17 7c 3f e8 17 80 3f f2 60 83 3f bd 34 7e 3f
       0.9847409 1.0007296 1.026396 0.9929922
000010 ab e6 83 3f 23 5f 82 3f 7f 61 80 3f 55 c4 83 3f
       1.0304769 1.0185283 1.0029753 1.0294291
000020 ba 16 7d 3f 7d 81 7f 3f 84 51 85 3f fb 57 80 3f
       0.98862803 0.9980696 1.0415502 1.002685

module.spatial_attn_layers.0.ln2.bias f4 [12]
000000 e0 0b 0d 37 aa d1 94 3b 49 46 0f bb 67 76 91 3b
       8.40702e-06 0.0045415955 -0.0021861962 0.0044391635
000010 02 e4 0a 3c 79 70 f8 bb 7d 7b 0a bc 54 8c e5 ba
       0.008477213 -0.007581767 -0.008452293 -0.0017513135
000020 84 aa 36 bc c7 78 a7 3a a4 45 05 3b cd d6 1a bb
       -0.0111490525 0.0012777083 0.0020335699 -0.0023626566

module.temporal_attn_layers.0.attn.FC_Q.weight f4 [12, 12]
000000 a0 24 bd 3d 15 f5 9d 3d c6 b2 18 be 7e 2d 38 bd
       0.09235501 0.07712761 -0.14911947 -0.04496526
000010 27 ea b3 bd 40 98 5d bd c9 12 83 3d a9 49 8f be
       -0.087848954 -0.054100275 0.06400067 -0.27985886
000020 74 bb 1a 3e b3 4c da 3d 09 91 b8 bd b7 12 6a be
       0.1511057 0.106591605 -0.09012038 -0.22858702
000030 d1 47 4c be d3 e7 23 be 19 cf 7a 3e 25 99 3d 3e
       -0.19949271 -0.16006403 0.24493064 0.18515451
000040 1e 73 79 be 66 b4 9e bb 04 d6 b2 bd 20 09 ff 3d
       -0.2436032 -0.0048432825 -0.087322265 0.12452912
000050 e8 88 b9 bd b8 4c 44 3e 61 3c 2f 3e f2 35 64 3e
       -0.09059316 0.19169891 0.17112876 0.22286204
000060 84 e1 a3 3c c6 c4 ac bc 0e b5 96 3e ba 40 2a 3e
       0.020004995 -0.021089923 0.2943501 0.16626254
000070 28 17 ff bc e3 ec bc 3d 8b 4d a7 3c 51 cb d7 3d
       -0.031138971 0.0922487 0.020422718 0.105368264
000080 a3 1b c1 3d a9 95 25 3d 4f 7e a9 be 6c 80 e6 3d
       0.094290994 0.04042593 -0.33104178 0.11254963
000090 a3 dc 34 be 61 5c 4e be 53 c1 53 be 47 a7 e1 bb
       -0.17662291 -0.20152427 -0.20679216 -0.006886396
0000a0 e3 c5 21 3e 63 53 69 3e 23 14 9e bc f6 d0 8a 3d
       0.15798144 0.22785716 -0.019296711 0.067781374
0000b0 22 b4 0b 3e 84 fb 19 ba 1d c4 6b 3d 50 36 36 be
       0.13642934 -0.00058739656 0.057560075 -0.17794156
0000c0 20 16 53 bd ed c7 0c 3e 27 70 82 3d 8f 1b 31 3d
       -0.051534772 0.1374814 0.063690476 0.043239173
0000d0 85 26 8d 3e d0 d2 a1 bc 34 5a 49 3e 4c 6f 84 3e
       0.2756845 -0.019753844 0.19663316 0.25866163
0000e0 b4 ac 13 be 29 d0 f6 bd dc 28 25 be e4 57 01 3e
       -0.1442135 -0.12051422 -0.16128868 0.12631184
0000f0 87 7b 28 bd 11 7b 91 3d 04 b0 e1 3d 99 b1 96 3e
       -0.04113343 0.07103551 0.110199004 0.2943237
000100 e4 ed b9 3c 2a e4 8c 3e 96 b0 24 3e b8 1e 71 3e
       0.022696443 0.27517825 0.16082987 0.23546875
000110 1e c7 cd 3d dc d6 89 be ae be 6d 3e a1 81 b0 3d
       0.10047744 -0.26921737 0.2321727 0.08618475
000120 7c bc 73 3e 63 1c 05 3e 39 1e 0b 3e bf 1f 8c be
       0.2380237 0.1299911 0.13585748 -0.2736797
000130 88 df f6 3c 9f 0d b1 3c 95 b5 bf bd ad df b0 bd
       0.030135885 0.02161294 -0.09360806 -0.08636413
000140 db cd 0b 3e 12 5b b1 3d 71 ea 51 be 7e 7e 6d 3e
       0.13652746 0.086599484 -0.20499589 0.23192784
000150 b9 0d 13 3e e7 d0 79 3e 33 ba 9e bd 02 ff 93 3d
       0.14360704 0.24396096 -0.077503584 0.07226373
000160 44 24 80 3d 88 91 32 be d9 5a e3 bd 08 41 3f be
       0.06256917 -0.17438328 -0.11101312 -0.18677151
000170 83 be 0d 3e 3c 90 49 3d 2b 09 14 3e 84 5d 36 3e
       0.13842206 0.04920982 0.14456622 0.17809111
000180 41 7c 81 3c e6 10 29 be 18 95 7d be 75 e9 4f be
       0.01580632 -0.16510352 -0.24763906 -0.203039
000190 52 2b 7f be 16 a3 2e bd 23 c9 85 bc c7 e4 80 be
       -0.24918869 -0.042636 -0.016331261 -0.25174543
0001a0 1f 1c 6d be 5d 4a d0 3d 47 ac 41 be 6a da 70 be
       -0.23155259 0.10170434 -0.18913375 -0.23520818
0001b0 f4 07 a9 3c 98 50 ec 3d 9e 33 1d be d8 87 cd 3d
       0.020633675 0.115388095 -0.15351722 0.10035676
0001c0 e7 52 24 be f9 b1 a6 bc 6f 1a 74 3e 3f 70 ef 3d
       -0.1604725 -0.020348536 0.23838209 0.11691331
0001d0 54 5a 89 be 30 7a 3f 3e 88 2f 89 3d 44 96 84 bd
       -0.26826727 0.18698955 0.06698519 -0.064739734
0001e0 c2 37 99 bc d9 21 80 3e 56 a4 71 be 04 52 34 3e
       -0.018703345 0.25025824 -0.23597845 0.17609411
0001f0 60 d9 90 3e c9 a6 cb bd bd d4 00 be b9 ce b2 3d
       0.28290844 -0.09943921 -0.12581153 0.087308355
000200 e9 49 80 3e 43 96 68 3e ad 4a b0 3d 48 22 ed 3b
       0.2505639 0.2271357 0.08607993 0.0072367527
000210 66 ef 13 3d 5a ae cb 3d cb 9d aa bd e5 c1 c7 bc
       0.03611698 0.09945364 -0.08330878 -0.024384448
000220 f4 61 69 3e b8 97 23 be 56 72 f9 3d 15 9d 4f be
       0.22791272 -0.15975845 0.12180011 -0.20274766
000230 fb 56 5b be 1d 5b bb bb 5a 5a 81 3e 6e 39 b3 bd
       -0.21419899 -0.0057176487 0.25264245 -0.08751188

module.temporal_attn_layers.0.attn.FC_Q.bias f4 [12]
000000 81 6a f6 bd bf ef 10 3e 16 11 12 be 1d 68 07 be
       -0.12032033 0.14153956 -0.1426433 -0.1322331
000010 4c 29 05 3d 58 9a 19 bd 8d 6f 95 bd 34 69 89 3e
       0.032510087 -0.03750071 -0.07296667 0.26838076
000020 16 0f 16 be 52 2b 85 3d e1 f0 8e 3b 34 8d 29 be
       -0.14654192 0.06502403 0.004362211 -0.16557771

module.temporal_attn_layers.0.attn.FC_K.weight f4 [12, 12]
000000 e7 d7 81 3c 4f 7b 9f be ed 84 9b 3d 28 a7 ec bd
       0.01585002 -0.31148764 0.07593713 -0.1155532
000010 70 6c 2e bd e0 1c 5d 3e 54 57 e8 3d c5 51 78 be
       -0.042583883 0.21593046 0.113447815 -0.24249943
000020 6d 55 51 bd 31 fd 72 be 84 f1 5b be f7 cf de bd
       -0.05110686 -0.23729397 -0.2147885 -0.1087951
000030 9f 99 0d bd 9e 4e 3f be 89 8f 94 3e 95 f9 27 bd
       -0.034570333 -0.18682334 0.2901576 -0.041009504
000040 96 9a 40 3e 79 29 cd 3d 12 12 d3 3c d4 4c 74 3d
       0.1880897 0.10017676 0.025765453 0.05964358
000050 be 79 8a 3e 1c cf 45 be 6f 20 6c be 74 96 40 bd
       0.27046007 -0.19317287 -0.23059247 -0.047018483
000060 3c 38 44 be e9 60 41 be 00 9e 8e 3e a5 22 a4 bd
       -0.19162077 -0.18884625 0.2785492 -0.080144204
000070 3e 80 76 be 37 76 89 3d e4 bd 83 3d 93 90 21 3d
       -0.24072358 0.06712001 0.06432703 0.039444517
000080 cc 8b 0e 3e cf 9f fb bd fd d9 68 be 9d 33 3a 3d
       0.13920516 -0.122863404 -0.22739406 0.04545938
000090 0a eb 0b be bf 99 5f 3e 7b df ed bd 6e 45 bb 3d
       -0.13663879 0.21835993 -0.11614891 0.09144102
0000a0 87 1a 2f 3e 54 37 3d 3d 57 48 45 3e 96 77 6b be
       0.17099963 0.046195343 0.19265877 -0.22994837
0000b0 d7 41 c5 3d 25 fc 52 be ee cc b6 bd bc 9e 42 3c
       0.096316986 -0.20603998 -0.08925806 0.011878666
0000c0 f3 3f 18 be d2 db 55 be 25 9b 3c be ca 77 b2 bd
       -0.14868145 -0.20884636 -0.18418558 -0.08714254
0000d0 be d1 08 3e 8a 2e c2 bd c4 70 65 be 85 5a 3f 3e
       0.1336126 -0.09481533 -0.22406298 0.18686874
0000e0 21 35 c9 3c ca 60 49 be bc 12 6a 3e e8 9d 81 be
       0.024561467 -0.19665828 0.22858709 -0.25315785
0000f0 a1 65 27 be f9 00 f4 3d e6 e0 30 bc b2 13 a7 3d
       -0.16347362 0.11914248 -0.0107958075 0.081580535
000100 92 ab 7b 3e 21 76 8f 3d 79 2e 8c be 22 9d 91 3e
       0.24577168 0.07004953 -0.27379206 0.28440195
000110 f7 b8 23 3e 6e fb 98 bb 72 a4 37 3d 5c 4b 98 3d
       0.15988527 -0.0046686446 0.04483456 0.07436249
000120 59 00 b8 bd ec a6 de bd e7 56 55 be 8b e4 86 be
       -0.08984441 -0.108716816 -0.20833932 -0.2634624
000130 91 3a ee bd 38 19 8f 3d 50 84 fc 3d 8b a9 50 be
       -0.116322644 0.06987232 0.12329924 -0.20377176
000140 b5 f8 dd 3c a0 3f ef 3d 64 09 63 be 45 0d 4a be
       0.027096132 0.116820574 -0.22171551 -0.19731624
000150 3f 5d 8a bd 2b d3 81 3e 0c c0 4c 3e dd 31 0f be
       -0.067560665 0.2535642 0.19995135 -0.13983865
000160 0d e3 84 3e e5 79 7b be 79 90 78 be 7c 9b 1d 3e
       0.25954476 -0.24558218 -0.24273862 0.15391344
000170 60 54 2e 3d 0a 4f 45 be 96 bd 91 3e 4a d4 74 be
       0.042560935 -0.19268432 0.28464955 -0.23909107
000180 78 97 92 3d 56 74 a3 bd b4 46 9a 3e 59 06 0e be
       0.071577966 -0.07981174 0.30132067 -0.13869609
000190 38 cc 85 bd 1a 5b 6e be 7a dc ef 3d 25 e5 62 3d
       -0.06533092 -0.2327694 0.117119744 0.05539431
0001a0 ed 9f 76 be ae 63 8c be c3 d4 1c bd 83 68 22 be
       -0.24084444 -0.274198 -0.038288843 -0.1586018
0001b0 52 83 7e be 4c b1 6f bd 34 4c ff bc 57 8d 98 3d
       -0.24854782 -0.058518693 -0.031164266 0.074488334
0001c0 46 90 41 bd 0c ac 5d be c4 d2 f2 3d 70 b8 0f 3e
       -0.04725673 -0.21647662 0.118566066 0.14035201
0001d0 63 9c e8 bb a3 0b e9 bd 58 eb 14 3e 80 27 5b bd
       -0.007098721 -0.11379173 0.14542902 -0.053504467
0001e0 a2 5d 5f 3e 6d 48 92 be 8c 6b 19 be e3 de 6f 3c
       0.21813062 -0.2857088 -0.14982432 0.014640543
0001f0 d0 94 1b be a1 b7 b8 bc 52 2a 79 3e 50 ed ad bd
       -0.15193486 -0.022548499 0.2433255 -0.084925294
000200 b1 bb 39 3d 18 bf 99 be 6e ca 2e be 96 db e4 bb
       0.045345012 -0.30028605 -0.17069408 -0.0069841845
000210 51 d2 a1 bc 7a 32 2d be 1a 70 64 3e cc 3a 78 bd
       -0.019753607 -0.16913787 0.22308388 -0.060602948
000220 3c 6c 41 3e 7c dc 36 be 2b 89 1e be 52 7b 13 3c
       0.18888944 -0.17857546 -0.15482013 0.00900157
000230 76 86 f7 3d f7 7a 92 be 95 1d 88 3e ad 55 03 be
       0.12086193 -0.2860944 0.2658507 -0.12825651

module.temporal_attn_layers.0.attn.FC_K.bias f4 [12]
000000 ba ad ae 3d 7d fd 2c bb 40 d7 ed bd bc 16 de 3c
       0.085292295 -0.0026396208 -0.11613321 0.02711045
000010 8b 82 17 3e a9 48 24 3d 12 c2 72 3d d5 eb 76 3e
       0.14795892 0.040108357 0.05926711 0.241134
000020 2a 47 c0 bd b3 d8 27 be 26 11 ed bd ff 23 71 3e
       -0.093885735 -0.16391258 -0.115755364 0.23548888
